…
1), true_valid.numpy()[plot_idx,:].reshape(-1)])\n    pred = np.concatenate([in_valid.numpy()[plot_idx,-1,:].reshape(-1), pred_valid[plot_idx,:].reshape(-1)])\n    ax.plot(pred, color='red', label='preds')\n    ax.plot(true, color='green', label='true')\n    ax.vlines(trn_len-1, np.min(true), np.max(true), color='black')\n    if i == 0: ax.legend()\nfig.tight_layout();\n\n\n\n\n\n\n\n\n\nlearn.model\n\nInceptionTimePlus(\n  (backbone): Sequential(\n    (0): InceptionBlockPlus(\n      (inception): ModuleList(\n        (0): InceptionModulePlus(\n          (bottleneck): ConvBlock(\n            (0): Conv1d(1, 32, kernel_size=(1,), stride=(1,), bias=False)\n          )\n          (convs): ModuleList(\n            (0): ConvBlock(\n              (0): Conv1d(32, 32, kernel_size=(39,), stride=(1,), padding=(19,), bias=False)\n            )\n            (1): ConvBlock(\n              (0): Conv1d(32, 32, kernel_size=(19,), stride=(1,), padding=(9,), bias=False)\n            )\n            (2): ConvBlock(\n              (0): Conv1d(32, 32, kernel_size=(9,), stride=(1,), padding=(4,), bias=False)\n            )\n          )\n          (mp_conv): Sequential(\n            (0): MaxPool1d(kernel_size=3, stride=1, padding=1, dilation=1, ceil_mode=False)\n            (1): ConvBlock(\n              (0): Conv1d(1, 32, kernel_size=(1,), stride=(1,), bias=False)\n            )\n          )\n          (concat): Concat(dim=1)\n          (norm): BatchNorm1d(128, eps=1e-05, momentum=0.1, affine=True, track_running_stats=True)\n          (act): ReLU()\n        )\n        (1): InceptionModulePlus(\n          (bottleneck): ConvBlock(\n            (0): Conv1d(128, 32, kernel_size=(1,), stride=(1,), bias=False)\n          )\n          (convs): ModuleList(\n            (0): ConvBlock(\n              (0): Conv1d(32, 32, kernel_size=(39,), stride=(1,), padding=(19,), bias=False)\n            )\n            (1): ConvBlock(\n              (0): Conv1d(32, 32, kernel_size=(19,), stride=(1,), padding=(9,), bias=False)\n            )\n            (2): ConvBlock(\n              (0): Conv1d(32, 32, kernel_size=(9,), stride=(1,), padding=(4,), bias=False)\n            )\n          )\n          (mp_conv): Sequential(\n            (0): MaxPool1d(kernel_size=3, stride=1, padding=1, dilation=1, ceil_mode=False)\n            (1): ConvBlock(\n              (0): Conv1d(128, 32, kernel_size=(1,), stride=(1,), bias=False)\n            )\n          )\n          (concat): Concat(dim=1)\n          (norm): BatchNorm1d(128, eps=1e-05, momentum=0.1, affine=True, track_running_stats=True)\n          (act): ReLU()\n        )\n        (2): InceptionModulePlus(\n          (bottleneck): ConvBlock(\n            (0): Conv1d(128, 32, kernel_size=(1,), stride=(1,), bias=False)\n          )\n          (convs): ModuleList(\n            (0): ConvBlock(\n              (0): Conv1d(32, 32, kernel_size=(39,), stride=(1,), padding=(19,), bias=False)\n            )\n            (1): ConvBlock(\n              (0): Conv1d(32, 32, kernel_size=(19,), stride=(1,), padding=(9,), bias=False)\n            )\n            (2): ConvBlock(\n              (0): Conv1d(32, 32, kernel_size=(9,), stride=(1,), padding=(4,), bias=False)\n            )\n          )\n          (mp_conv): Sequential(\n            (0): MaxPool1d(kernel_size=3, stride=1, padding=1, dilation=1, ceil_mode=False)\n            (1): ConvBlock(\n              (0): Conv1d(128, 32, kernel_size=(1,), stride=(1,), bias=False)\n            )\n          )\n          (concat): Concat(dim=1)\n          (norm): BatchNorm1d(128, eps=1e-05, momentum=0.1, affine=True, track_running_stats=True)\n        )\n        (3): InceptionModulePlus(\n          (bottleneck): ConvBlock(\n            (0): Conv1d(128, 32, kernel_size=(1,), stride=(1,), bias=False)\n          )\n          (convs): ModuleList(\n            (0): ConvBlock(\n              (0): Conv1d(32, 32, kernel_size=(39,), stride=(1,), padding=(19,), bias=False)\n            )\n            (1): ConvBlock(\n              (0): Conv1d(32, 32, kernel_size=(19,), stride=(1,), padding=(9,), bias=False)\n            )\n            (2): ConvBlock(\n              (0): Conv1d(32, 32, kernel_size=(9,), stride=(1,), padding=(4,), bias=False)\n            )\n          )\n          (mp_conv): Sequential(\n            (0): MaxPool1d(kernel_size=3, stride=1, padding=1, dilation=1, ceil_mode=False)\n            (1): ConvBlock(\n              (0): Conv1d(128, 32, kernel_size=(1,), stride=(1,), bias=False)\n            )\n          )\n          (concat): Concat(dim=1)\n          (norm): BatchNorm1d(128, eps=1e-05, momentum=0.1, affine=True, track_running_stats=True)\n          (act): ReLU()\n        )\n        (4): InceptionModulePlus(\n          (bottleneck): ConvBlock(\n            (0): Conv1d(128, 32, kernel_size=(1,), stride=(1,), bias=False)\n          )\n          (convs): ModuleList(\n            (0): ConvBlock(\n              (0): Conv1d(32, 32, kernel_size=(39,), stride=(1,), padding=(19,), bias=False)\n            )\n            (1): ConvBlock(\n              (0): Conv1d(32, 32, kernel_size=(19,), stride=(1,), padding=(9,), bias=False)\n            )\n            (2): ConvBlock(\n              (0): Conv1d(32, 32, kernel_size=(9,), stride=(1,), padding=(4,), bias=False)\n            )\n          )\n          (mp_conv): Sequential(\n            (0): MaxPool1d(kernel_size=3, stride=1, padding=1, dilation=1, ceil_mode=False)\n            (1): ConvBlock(\n              (0): Conv1d(128, 32, kernel_size=(1,), stride=(1,), bias=False)\n            )\n          )\n          (concat): Concat(dim=1)\n          (norm): BatchNorm1d(128, eps=1e-05, momentum=0.1, affine=True, track_running_stats=True)\n          (act): ReLU()\n        )\n        (5): InceptionModulePlus(\n          (bottleneck): ConvBlock(\n            (0): Conv1d(128, 32, kernel_size=(1,), stride=(1,), bias=False)\n          )\n          (convs): ModuleList(\n            (0): ConvBlock(\n              (0): Conv1d(32, 32, kernel_size=(39,), stride=(1,), padding=(19,), bias=False)\n            )\n            (1): ConvBlock(\n              (0): Conv1d(32, 32, kernel_size=(19,), stride=(1,), padding=(9,), bias=False)\n            )\n            (2): ConvBlock(\n              (0): Conv1d(32, 32, kernel_size=(9,), stride=(1,), padding=(4,), bias=False)\n            )\n          )\n          (mp_conv): Sequential(\n            (0): MaxPool1d(kernel_size=3, stride=1, padding=1, dilation=1, ceil_mode=False)\n            (1): ConvBlock(\n              (0): Conv1d(128, 32, kernel_size=(1,), stride=(1,), bias=False)\n            )\n          )\n          (concat): Concat(dim=1)\n          (norm): BatchNorm1d(128, eps=1e-05, momentum=0.1, affine=True, track_running_stats=True)\n        )\n      )\n      (shortcut): ModuleList(\n        (0): ConvBlock(\n          (0): Conv1d(1, 128, kernel_size=(1,), stride=(1,), bias=False)\n          (1): BatchNorm1d(128, eps=1e-05, momentum=0.1, affine=True, track_running_stats=True)\n        )\n        (1): BatchNorm1d(128, eps=1e-05, momentum=0.1, affine=True, track_running_stats=True)\n      )\n      (act): ModuleList(\n        (0): ReLU()\n        (1): ReLU()\n      )\n      (add): Add\n    )\n  )\n  (head): Sequential(\n    (0): create_lin_nd_head(\n      (0): fastai.layers.Flatten(full=False)\n      (1): Linear(in_features=51200, out_features=100, bias=True)\n      (2): Reshape(bs, 100)\n    )\n  )\n)\n\n\n\ndata.shape\n\n(778, 173, 500)\n\n\n\nX = torch.from_numpy(np.concatenate(data, axis=0))[:,:400].squeeze(1)\n\n\nX = torch.tensor(x, dtype=torch.float32)\n\n\nX.shape\n\ntorch.Size([134594, 1, 400])\n\n\n\nx.shape\n\ntorch.Size([134594, 1, 400])\n\n\n\nSlidingWindowSplitter??\n\n\nX, y = SlidingWindow
…
0.679012\n140\n\n\n3\nPlot\n{'shuffle': False}\n6469942\n0.000244\n0.959720\n0.633745\n140\n\n\n4\nRP\n{'shuffle': False}\n6469942\n0.000288\n1.545471\n0.567901\n140\n\n\n5\nGADF\n{'shuffle': False}\n6469942\n0.000223\n1.665993\n0.534979\n140\n\n\n\n\n\n\n\n\nxb,yb = dls.one_batch()\n\n\nclass Hook():\n    def hook_func(self, m, i, o): self.stored = o.detach().clone()\n\n\nhook_output = Hook()\nhook = learn.model.conv3.register_forward_hook(hook_output.hook_func)\n\n\nwith torch.no_grad(): output = learn.model.eval()(xb)\n\n\nact = hook_output.stored[0]\n\n\nlearn.model\n\nStagerNet(\n  (conv1): Conv2d(1, 173, kernel_size=(173, 1), stride=(1, 1))\n  (conv2): Conv2d(1, 16, kernel_size=(1, 50), stride=(1, 1))\n  (conv3): Conv2d(16, 16, kernel_size=(1, 50), stride=(1, 1))\n  (linear1): Linear(in_features=11072, out_features=2, bias=True)\n  (batchnorm1): BatchNorm2d(16, eps=1e-05, momentum=0.1, affine=True, track_running_stats=True)\n  (batchnorm2): BatchNorm2d(16, eps=1e-05, momentum=0.1, affine=True, track_running_stats=True)\n)\n\n\n\nxb.shape\n\ntorch.Size([64, 173, 1500])\n\n\n\nact.shape\n\ntorch.Size([16, 173, 62])\n\n\n\nlearn.model.conv3.weight.shape\n\ntorch.Size([16, 16, 1, 50])\n\n\n\nclass Hook():\n    def __init__(self, m):\n        self.hook = m.register_forward_hook(self.hook_func)   \n    def hook_func(self, m, i, o): self.stored = o.det
…
